{
  "model": {
    "model": "Model5(\n  (features): Sequential(\n    (0): Conv2d(1, 64, kernel_size=(3, 3), stride=(1, 1), padding=(1, 1))\n    (1): BatchNorm2d(64, eps=1e-05, momentum=0.1, affine=True, track_running_stats=True)\n    (2): ReLU()\n    (3): MaxPool2d(kernel_size=2, stride=2, padding=0, dilation=1, ceil_mode=False)\n    (4): ResidualBlock(\n      (conv): Sequential(\n        (0): Conv2d(64, 128, kernel_size=(3, 3), stride=(1, 1), padding=(1, 1))\n        (1): BatchNorm2d(128, eps=1e-05, momentum=0.1, affine=True, track_running_stats=True)\n        (2): ReLU()\n        (3): Conv2d(128, 128, kernel_size=(3, 3), stride=(1, 1), padding=(1, 1))\n        (4): BatchNorm2d(128, eps=1e-05, momentum=0.1, affine=True, track_running_stats=True)\n      )\n      (skip): Conv2d(64, 128, kernel_size=(1, 1), stride=(1, 1))\n      (relu): ReLU()\n    )\n    (5): MaxPool2d(kernel_size=2, stride=2, padding=0, dilation=1, ceil_mode=False)\n    (6): ResidualBlock(\n      (conv): Sequential(\n        (0): Conv2d(128, 256, kernel_size=(3, 3), stride=(1, 1), padding=(1, 1))\n        (1): BatchNorm2d(256, eps=1e-05, momentum=0.1, affine=True, track_running_stats=True)\n        (2): ReLU()\n        (3): Conv2d(256, 256, kernel_size=(3, 3), stride=(1, 1), padding=(1, 1))\n        (4): BatchNorm2d(256, eps=1e-05, momentum=0.1, affine=True, track_running_stats=True)\n      )\n      (skip): Conv2d(128, 256, kernel_size=(1, 1), stride=(1, 1))\n      (relu): ReLU()\n    )\n    (7): MaxPool2d(kernel_size=2, stride=2, padding=0, dilation=1, ceil_mode=False)\n    (8): ResidualBlock(\n      (conv): Sequential(\n        (0): Conv2d(256, 512, kernel_size=(3, 3), stride=(1, 1), padding=(1, 1))\n        (1): BatchNorm2d(512, eps=1e-05, momentum=0.1, affine=True, track_running_stats=True)\n        (2): ReLU()\n        (3): Conv2d(512, 512, kernel_size=(3, 3), stride=(1, 1), padding=(1, 1))\n        (4): BatchNorm2d(512, eps=1e-05, momentum=0.1, affine=True, track_running_stats=True)\n      )\n      (skip): Conv2d(256, 512, kernel_size=(1, 1), stride=(1, 1))\n      (relu): ReLU()\n    )\n  )\n  (classifier): Sequential(\n    (0): AdaptiveAvgPool2d(output_size=1)\n    (1): Flatten(start_dim=1, end_dim=-1)\n    (2): Dropout(p=0.6, inplace=False)\n    (3): Linear(in_features=512, out_features=2, bias=True)\n  )\n  (_target_layer): ResidualBlock(\n    (conv): Sequential(\n      (0): Conv2d(256, 512, kernel_size=(3, 3), stride=(1, 1), padding=(1, 1))\n      (1): BatchNorm2d(512, eps=1e-05, momentum=0.1, affine=True, track_running_stats=True)\n      (2): ReLU()\n      (3): Conv2d(512, 512, kernel_size=(3, 3), stride=(1, 1), padding=(1, 1))\n      (4): BatchNorm2d(512, eps=1e-05, momentum=0.1, affine=True, track_running_stats=True)\n    )\n    (skip): Conv2d(256, 512, kernel_size=(1, 1), stride=(1, 1))\n    (relu): ReLU()\n  )\n)",
    "criterion": "CrossEntropyLoss()",
    "optimizer": "Adam (\nParameter Group 0\n    amsgrad: False\n    betas: (0.9, 0.999)\n    capturable: False\n    decoupled_weight_decay: False\n    differentiable: False\n    eps: 1e-08\n    foreach: None\n    fused: None\n    lr: 1.0000000000000002e-06\n    maximize: False\n    weight_decay: 0\n)",
…
