{
  "model": {
    "model": "Model4(\n  (features): Sequential(\n    (0): Conv2d(1, 32, kernel_size=(3, 3), stride=(1, 1), padding=(1, 1))\n    (1): BatchNorm2d(32, eps=1e-05, momentum=0.1, affine=True, track_running_stats=True)\n    (2): ReLU()\n    (3): MaxPool2d(kernel_size=2, stride=2, padding=0, dilation=1, ceil_mode=False)\n    (4): Conv2d(32, 64, kernel_size=(3, 3), stride=(1, 1), padding=(1, 1))\n    (5): BatchNorm2d(64, eps=1e-05, momentum=0.1, affine=True, track_running_stats=True)\n    (6): ReLU()\n    (7): SEBlock(\n      (fc): Sequential(\n        (0): AdaptiveAvgPool2d(output_size=1)\n        (1): Flatten(start_dim=1, end_dim=-1)\n        (2): Linear(in_features=64, out_features=4, bias=True)\n        (3): ReLU()\n        (4): Linear(in_features=4, out_features=64, bias=True)\n        (5): Sigmoid()\n      )\n    )\n    (8): MaxPool2d(kernel_size=2, stride=2, padding=0, dilation=1, ceil_mode=False)\n    (9): Conv2d(64, 128, kernel_size=(3, 3), stride=(1, 1), padding=(1, 1))\n    (10): BatchNorm2d(128, eps=1e-05, momentum=0.1, affine=True, track_running_stats=True)\n    (11): ReLU()\n    (12): SEBlock(\n      (fc): Sequential(\n        (0): AdaptiveAvgPool2d(output_size=1)\n        (1): Flatten(start_dim=1, end_dim=-1)\n        (2): Linear(in_features=128, out_features=8, bias=True)\n        (3): ReLU()\n        (4): Linear(in_features=8, out_features=128, bias=True)\n        (5): Sigmoid()\n      )\n    )\n    (13): MaxPool2d(kernel_size=2, stride=2, padding=0, dilation=1, ceil_mode=False)\n    (14): Conv2d(128, 256, kernel_size=(3, 3), stride=(1, 1), padding=(1, 1))\n    (15): BatchNorm2d(256, eps=1e-05, momentum=0.1, affine=True, track_running_stats=True)\n    (16): ReLU()\n    (17): SEBlock(\n      (fc): Sequential(\n        (0): AdaptiveAvgPool2d(output_size=1)\n        (1): Flatten(start_dim=1, end_dim=-1)\n        (2): Linear(in_features=256, out_features=16, bias=True)\n        (3): ReLU()\n        (4): Linear(in_features=16, out_features=256, bias=True)\n        (5): Sigmoid()\n      )\n    )\n  )\n  (classifier): Sequential(\n    (0): AdaptiveAvgPool2d(output_size=1)\n    (1): Flatten(start_dim=1, end_dim=-1)\n    (2): Dropout(p=0.5, inplace=False)\n    (3): Linear(in_features=256, out_features=2, bias=True)\n  )\n  (_target_layer): SEBlock(\n    (fc): Sequential(\n      (0): AdaptiveAvgPool2d(output_size=1)\n      (1): Flatten(start_dim=1, end_dim=-1)\n      (2): Linear(in_features=256, out_features=16, bias=True)\n      (3): ReLU()\n      (4): Linear(in_features=16, out_features=256, bias=True)\n      (5): Sigmoid()\n    )\n  )\n)",
    "criterion": "CamConsistencyLossWithCrossEntropy(\n  (model): Model4(\n    (features): Sequential(\n      (0): Conv2d(1, 32, kernel_size=(3, 3), stride=(1, 1), padding=(1, 1))\n      (1): BatchNorm2d(32, eps=1e-05, momentum=0.1, affine=True, track_running_stats=True)\n      (2): ReLU()\n      (3): MaxPool2d(kernel_size=2, stride=2, padding=0, dilation=1, ceil_mode=False)\n      (4): Conv2d(32, 64, kernel_size=(3, 3), stride=(1, 1), padding=(1, 1))\n      (5): BatchNorm2d(64, eps=1e-05, momentum=0.1, affine=True, track_running_stats=True)\n      (6): ReLU()\n      (7): SEBlock(\n        (fc): Sequential(\n          (0): AdaptiveAvgPool2d(output_size=1)\n          (1): Flatten(start_dim=1, end_dim=-1)\n          (2): Linear(in_features=64, out_features=4, bias=True)\n          (3): ReLU()\n          (4): Linear(in_features=4, out_features=64, bias=True)\n          (5): Sigmoid()\n        )\n      )\n      (8): MaxPool2d(kernel_size=2, stride=2, padding=0, dilation=1, ceil_mode=False)\n      (9): Conv2d(64, 128, kernel_size=(3, 3), stride=(1, 1), padding=(1, 1))\n      (10): BatchNorm2d(128, eps=1e-05, momentum=0.1, affine=True, track_running_stats=True)\n      (11): ReLU()\n      (12): SEBlock(\n        (fc): Sequential(\n          (0): AdaptiveAvgPool2d(output_size=1)\n          (1): Flatten(start_dim=1, end_dim=-1)\n          (2): Linear(in_features=128, out_features=8, bias=True)\n          (3): ReLU()\n          (4): Linear(in_features=8, out_features=128, bias=True)\n          (5): Sigmoid()\n        )\n      )\n      (13): MaxPool2d(kernel_size=2, stride=2, padding=0, dilation=1, ceil_mode=False)\n      (14): Conv2d(128, 256, kernel_size=(3, 3), stride=(1, 1), padding=(1, 1))\n      (15): BatchNorm2d(256, eps=1e-05, momentum=0.1, affine=True, track_running_stats=True)\n      (16): ReLU()\n      (17): SEBlock(\n        (fc): Sequential(\n          (0): AdaptiveAvgPool2d(output_size=1)\n          (1): Flatten(start_dim=1, end_dim=-1)\n          (2): Linear(in_features=256, out_features=16, bias=True)\n          (3): ReLU()\n          (4): Linear(in_features=16, out_features=256, bias=True)\n          (5): Sigmoid()\n        )\n      )\n    )\n    (classifier): Sequential(\n      (0): AdaptiveAvgPool2d(output_size=1)\n      (1): Flatten(start_dim=1, end_dim=-1)\n      (2): Dropout(p=0.5, inplace=False)\n      (3): Linear(in_features=256, out_features=2, bias=True)\n    )\n    (_target_layer): SEBlock(\n      (fc): Sequential(\n        (0): AdaptiveAvgPool2d(output_size=1)\n        (1): Flatten(start_dim=1, end_dim=-1)\n        (2): Linear(in_features=256, out_features=16, bias=True)\n        (3): ReLU()\n        (4): Linear(in_features=16, out_features=256, bias=True)\n        (5): Sigmoid()\n      )\n    )\n  )\n  (cam_consistency_loss): CamConsistencyLoss(\n    (model): Model4(\n      (features): Sequential(\n        (0): Conv2d(1, 32, kernel_size=(3, 3), stride=(1, 1), padding=(1, 1))\n        (1): BatchNorm2d(32, eps=1e-05, momentum=0.1, affine=True, track_running_stats=True)\n        (2): ReLU()\n        (3): MaxPool2d(kernel_size=2, stride=2, padding=0, dilation=1, ceil_mode=False)\n        (4): Conv2d(32, 64, kernel_size=(3, 3), stride=(1, 1), padding=(1, 1))\n        (5): BatchNorm2d(64, eps=1e-05, momentum=0.1, affine=True, track_running_stats=True)\n        (6): ReLU()\n        (7): SEBlock(\n          (fc): Sequential(\n            (0): AdaptiveAvgPool2d(output_size=1)\n            (1): Flatten(start_dim=1, end_dim=-1)\n            (2): Linear(in_features=64, out_features=4, bias=True)\n            (3): ReLU()\n            (4): Linear(in_features=4, out_features=64, bias=True)\n            (5): Sigmoid()\n          )\n        )\n        (8): MaxPool2d(kernel_size=2, stride=2, padding=0, dilation=1, ceil_mode=False)\n        (9): Conv2d(64, 128, kernel_size=(3, 3), stride=(1, 1), padding=(1, 1))\n        (10): BatchNorm2d(128, eps=1e-05, momentum=0.1, affine=True, track_running_stats=True)\n        (11): ReLU()\n        (12): SEBlock(\n          (fc): Sequential(\n            (0): AdaptiveAvgPool2d(output_size=1)\n            (1): Flatten(start_dim=1, end_dim=-1)\n            (2): Linear(in_features=128, out_features=8, bias=True)\n            (3): ReLU()\n            (4): Linear(in_features=8, out_features=128, bias=True)\n            (5): Sigmoid()\n          )\n        )\n        (13): MaxPool2d(kernel_size=2, stride=2, padding=0, dilation=1, ceil_mode=False)\n        (14): Conv2d(128, 256, kernel_size=(3, 3), stride=(1, 1), padding=(1, 1))\n        (15): BatchNorm2d(256, eps=1e-05, momentum=0.1, affine=True, track_running_stats=True)\n        (16): ReLU()\n        (17): SEBlock(\n          (fc): Sequential(\n            (0): AdaptiveAvgPool2d(output_size=1)\n            (1): Flatten(start_dim=1, end_dim=-1)\n            (2): Linear(in_features=256, out_features=16, bias=True)\n            (3): ReLU()\n            (4): Linear(in_features=16, out_features=256, bias=True)\n            (5): Sigmoid()\n          )\n        )\n      )\n      (classifier): Sequential(\n        (0): AdaptiveAvgPool2d(output_size=1)\n        (1): Flatten(start_dim=1, end_dim=-1)\n        (2): Dropout(p=0.5, inplace=False)\n        (3): Linear(in_features=256, out_features=2, bias=True)\n      )\n      (_target_layer): SEBlock(\n        (fc): Sequential(\n          (0): AdaptiveAvgPool2d(output_size=1)\n          (1): Flatten(start_dim=1, end_dim=-1)\n          (2): Linear(in_features=256, out_features=16, bias=True)\n          (3): ReLU()\n          (4): Linear(in_features=16, out_features=256, bias=True)\n          (5): Sigmoid()\n        )\n      )\n    )\n  )\n  (cross_entropy_loss): CrossEntropyLoss()\n)",
    "optimizer": "Adam (\nParameter Group 0\n    amsgrad: False\n    betas: (0.9, 0.999)\n    capturable: False\n    decoupled_weight_decay: False\n    differentiable: False\n    eps: 1e-08\n    foreach: None\n    fused: None\n    lr: 1.0000000000000004e-08\n    maximize: False\n    weight_decay: 0\n)",
…
